weight_AP05:0.278_280-epoch-512x512.onnx (onnx, 985912 bytes, 140 tensors)

759 f4 [24, 3, 3, 3]
000000 d9 20 be bd 5f 33 01 bd 06 bf c0 bd d0 4b 71 bd
       -0.09283609 -0.031543132 -0.09411435 -0.05891019
000010 eb ce 5e 3b 18 52 5f bd 74 00 c9 bd 78 e6 53 bd
       0.0033997844 -0.05452165 -0.098145396 -0.051733464
000020 aa 1b a9 bd 34 32 e2 bd 05 eb 8a bd dd 20 c6 bd
       -0.082572296 -0.11044732 -0.06783108 -0.09674237
000030 9f 60 c0 bd ad b3 7d bd 1b 14 9a bd 94 b0 de bd
       -0.09393429 -0.06193893 -0.07523366 -0.10873523
000040 da 19 c1 bd 93 2b d9 bd 1d ae 3a 3e 75 75 e0 3d
       -0.09428759 -0.10604014 0.18230481 0.10959903
000050 cf c8 37 3e c0 33 1f 3e d3 49 80 3d b3 69 fa 3d
       0.17947696 0.15547085 0.06264081 0.12227192
000060 fe 9e 3f 3e fd 6e 08 3e d3 71 35 3e 52 48 9d 3e
       0.18712994 0.13323589 0.17719202 0.3071924
000070 91 84 26 be b2 58 da bd 18 b9 48 be 79 24 16 bf
       -0.16261508 -0.106614485 -0.19601858 -0.586494
000080 6d c5 e2 bb fe ff 4c 39 42 e3 87 3d e4 c0 01 3f
       -0.0069205076 0.0001955032 0.06635143 0.5068495
000090 33 3d 5f 3f b5 54 6b be e2 a0 b5 be 79 04 a5 be
       0.8720276 -0.22981532 -0.35474306 -0.32229975
0000a0 2f ee 91 bf 3b 93 41 be b1 77 a9 be 5c 16 77 bd
       -1.1400813 -0.1890382 -0.3309913 -0.060324058
0000b0 1b d1 64 3f 51 d8 2a 3f 74 c6 3d 3d bd 3e ce bc
       0.8938157 0.6673632 0.046331838 -0.0251764
0000c0 a3 fe da bd 73 a2 47 bf 05 15 85 be 17 dc 47 be
       -0.10693099 -0.7798225 -0.259926 -0.19517551
0000d0 4e f3 12 bd 81 8c 05 3f 9d 87 6b 3e f5 d7 35 3e
       -0.035876565 0.52167517 0.23000951 0.17758162
0000e0 96 c5 6b 3e 1d 1c f1 3d 29 97 ac 3c 45 5e 0b 3e
       0.23024592 0.1177294 0.021068173 0.1361018
0000f0 05 5b 64 3e a4 0c 06 3e d0 9e 74 3e 28 ec 90 be
       0.22300346 0.1309076 0.23888707 -0.28305173
000100 05 a4 89 be da a5 9a be c4 9c 92 be 6f 0c 88 be
       -0.2688295 -0.3020466 -0.28635228 -0.26571986
000110 2e f8 99 be e8 65 91 be 48 43 90 be 0b 11 b1 be
       -0.3007216 -0.2839806 -0.28176332 -0.34583315
000120 c1 a6 a3 3d f6 b2 ee 3d 09 f0 ac 3d 77 76 17 3e
       0.0799079 0.11655228 0.084442206 0.14791285
000130 89 5f 68 3e e5 41 2c 3e c8 69 57 3d ed 27 e3 3d
       0.22692694 0.16822012 0.052591115 0.110915996
000140 28 34 b1 3d d7 ff 6d be 9a ae 32 be 07 ed 5f be
       0.08652526 -0.23242126 -0.17449418 -0.21867763
000150 e9 d5 77 be 40 ae 2e be 40 f7 50 be 34 d3 4b be
       -0.24202694 -0.17058659 -0.20406818 -0.19904786
000160 20 3a 10 be 30 d2 04 be ad 66 ba 3e 85 91 8f 3e
       -0.14084673 -0.12970805 0.3640646 0.2804071
000170 5d 73 9e 3e 72 e5 98 3e 44 d8 62 3e 4e a8 82 3e
       0.3094739 0.29862553 0.22152811 0.2551903
000180 d3 03 ab 3e f0 77 76 3e 3e a6 85 3e 80 3e f7 bd
       0.33401355 0.2406919 0.26103395 -0.12072468
000190 1e f9 f0 bd 90 97 b3 bd ba 5b a8 bd ff 4c 4f bd
       -0.11766265 -0.08769143 -0.082206205 -0.05061054
0001a0 8c 9c 56 bd 90 6a ef bd c0 44 f8 bd 12 82 09 be
       -0.05239539 -0.11690247 -0.12122488 -0.13428524
0001b0 9d 6e c1 3e 11 26 22 be 82 19 58 be 8d 43 97 3e
       0.37779704 -0.15834834 -0.2110348 0.29543725
0001c0 f6 a4 cf bb 34 78 80 be 0a 84 a6 3e 5b 04 00 be
       -0.0063368035 -0.25091708 0.32522613 -0.12501661
0001d0 d7 b9 82 be fe 75 8e 3f ac 17 bb be 83 48 57 bf
       -0.2553241 1.1129758 -0.36541498 -0.8409502
0001e0 08 60 84 3f 0a e1 f2 bd 1e 6d 55 bf 56 40 7b 3f
       1.0341806 -0.11859329 -0.83369625 0.98145044
0001f0 cd 9d 51 be 32 7d 51 bf cb 83 65 3f 44 31 ba be
       -0.20470352 -0.8183166 0.89654225 -0.36365712
000200 04 c2 1e bf df 1b 3e 3f 9e f9 f0 bd a9 10 0c bf
       -0.62014794 0.7426128 -0.11766361 -0.5471292
000210 3a be 54 3f 60 ea 1f be 9b 10 21 bf 31 ee d2 3c
       0.8310276 -0.1561675 -0.6291596 0.025748344
000220 9e 77 ba 3d 9a 6b 4e 3c e1 5d 5e 3d ff 33 91 3d
       0.091048464 0.012598896 0.05428875 0.070899956
000230 b3 aa 3e 3d 74 3d 1f 3d 3d c0 d9 3d b3 d2 6f 3d
       0.04654951 0.038876966 0.1063237 0.058550548
000240 4d bc c4 3d aa 88 3c 3e 1d 3d d3 3d 48 fb c5 3d
       0.09606228 0.18411508 0.10314391 0.09667069
000250 91 1b f9 3d 96 37 a1 3d a7 96 26 3d e3 c4 db 3d
       0.12163461 0.0787193 0.040671017 0.107309125
000260 19 76 12 3d 99 99 92 3d c6 40 13 3e 26 63 be 3d
       0.035757158 0.07158203 0.14380178 0.09296255
000270 5e f6 65 3d 81 68 8c 3d b9 06 a1 3d 21 ec f0 3c
       0.056143157 0.0685587 0.0786261 0.02940947
000280 34 85 df 3d 4c 46 87 3d 65 95 a5 be 84 ad 81 bd
       0.10914078 0.06605205 -0.3234054 -0.063319236
000290 6b 84 ed 3e fb a6 ab be d2 e6 02 bd c6 36 d8 3e
       0.4639009 -0.33525833 -0.03195841 0.4222929
0002a0 7c a4 cb be 4e 0e 72 be 81 3c 06 3f 1a 72 5a bf
       -0.3977393 -0.2363827 0.5243607 -0.85330355
0002b0 55 a6 d9 bd b9 be 87 3f 99 e5 5f bf d2 6f 06 be
       -0.106274284 1.0605079 -0.87459713 -0.13128594
0002c0 34 63 82 3f e4 2f 63 bf 0f 89 cb be c0 58 88 3f
       1.0186524 -0.8874495 -0.39753005 1.0652084
0002d0 c9 5e c6 be 85 ef e8 bd 10 ef 23 3f d9 c5 b3 be
       -0.3874419 -0.1137381 0.64036655 -0.35111883
0002e0 90 c8 fe bd e2 ea 02 3f 37 fa d3 be 0a 76 c0 be
       -0.12440598 0.5113965 -0.41401836 -0.37590057
0002f0 80 1b 29 3f fc 84 61 3e 60 2d 33 3e a8 1f 80 3d
       0.66057587 0.22023386 0.17497778 0.06256038
000300 f7 a1 23 3d 1a 90 de bc 05 36 c3 bd 7e da 24 bd
       0.039949384 -0.027168322 -0.09531788 -0.040247433
000310 1f 75 f1 bd e5 1e f7 bd 5e a1 68 be e4 1f 60 3d
       -0.11789917 -0.120664395 -0.22717807 0.054717913
000320 7f 9e 11 bd c6 77 85 3d dc d9 88 3e b7 71 97 3d
       -0.035551544 0.065169856 0.26728714 0.07394736
000330 20 3e 9e 3e ff 21 bf 3e b5 d9 57 3e 18 b2 1a be
       0.30906773 0.37330624 0.21079142 -0.15107
000340 63 b1 4c bc 63 70 e0 bd c1 63 ba 3d 5c 63 1a 3e
       -0.012493464 -0.10958936 0.09101058 0.15076965
000350 b3 d2 31 3d 2b bd ad 3e 83 5d a5 3e 6c 93 66 3e
       0.04341383 0.33933386 0.32297906 0.22517174
000360 b3 cd 60 3c 96 7f b9 be 93 00 10 be 29 f1 15 3e
       0.0137209175 -0.36230153 -0.14062719 0.14642777
000370 7e a9 8e bd 19 e4 9b be b2 ec dc 3d fd 52 d9 3e
       -0.06965922 -0.30447462 0.107873335 0.42446128
000380 11 51 43 3e 6b ee ae be 01 d0 80 bf 06 8b 3b bf
       0.19073893 -0.34166273 -1.0063478 -0.7325901
000390 ac 42 ed 3e d7 16 d8 bd bd 2a 21 bf 9c 22 34 3f
       0.4633993 -0.10551231 -0.6295584 0.7036531
0003a0 b4 85 88 3f 6e d3 07 3f 49 29 b5 be f7 5d 6b bf
       1.0665803 0.5305699 -0.3538306 -0.91940254
0003b0 5a dc 30 bf a0 28 cd 3e b9 05 1d be 87 e7 1d bf
       -0.6908623 0.40070057 -0.15334214 -0.6168141
0003c0 23 23 50 3f c2 7c 80 3f 55 f4 0d 3f 95 fe 35 bf
       0.81303614 1.0038073 0.55450946 -0.71091586
0003d0 a0 84 c6 bd fd aa 47 3e 24 5d e1 3d 5b 46 3f 3f
       -0.09693265 0.1949882 0.11004093 0.7471673
0003e0 18 27 6d 3e 1e 8b 1f 3e 93 ec 13 3e bd 9e 01 bf
       0.23159444 0.15580413 0.14445715 -0.5063284
0003f0 d8 a3 90 bf 1b 75 af 3c 02 70 a9 3e 07 71 89 3e
       -1.1300001 0.021418145 0.33093268 0.26844046

760 f4 [24]
000000 c8 98 20 3f 5d ca 94 3f a2 2f 11 3f 70 11 ec 3e
       0.62733126 1.1624256 0.56713307 0.46107054
000010 07 63 3f 3c 98 0f f0 3d ad b0 08 3d 91 43 d5 bf
       0.011681325 0.11721724 0.033371616 -1.6661245
000020 f2 40 de 3d 48 4e 03 3d 02 c7 2f 3e e9 fe 8c b8
       0.10852231 0.032057077 0.17165759 -6.723201e-05
000030 82 0a 12 3f cd ea 97 3f a6 1f c2 3d d0 8e 18 b9
       0.57047284 1.186853 0.09478693 -0.00014549051
000040 01 76 7c 3f fc bc ba 3e 29 90 9d 3e a0 eb 6a 3c
       0.9861756 0.3647231 0.30774048 0.014338404
000050 a8 24 b1 3d f0 48 0a 40 00 f0 78 ba 80 e1 c7 3d
       0.0864957 2.1607018 -0.0009496212 0.097598076

762 f4 [24, 1, 3, 3]
000000 bf b6 80 bd 2b 7c 1e be a5 f0 55 3e 42 b7 e1 bf
       -0.06284856 -0.15477054 0.2089258 -1.7634051
000010 0c 50 78 be 1d 3d e1 3f 14 b3 c8 bf 7e 6d d7 be
       -0.24249285 1.7596775 -1.567965 -0.42075723
000020 5e c2 bc 3f eb a4 a8 3c c3 3a 81 3c ef c9 45 3d
       1.4746816 0.020586452 0.01577509 0.048288282
000030 6d cc 11 3e 07 e6 e9 3d 12 00 80 bc 72 13 62 3e
       0.14238138 0.11420827 -0.015625034 0.2207773
000040 51 2e 1d 3e f5 1b c8 bd 58 4b 06 be 75 9f 49 3d
       0.153497 -0.097709574 -0.13114679 0.049224336
000050 fe 64 2c bd de 05 c2 be 15 e5 aa 3d 09 80 67 3f
       -0.0420885 -0.378951 0.08344475 0.9042974
000060 47 a4 00 bf c5 79 ae 3e 4a df d1 3f c8 a1 d3 3d
       -0.5025067 0.34077278 1.6396267 0.10333592
000070 1f 82 b5 3d d7 77 29 be 2b 31 44 3f d0 56 9d 3e
       0.08862709 -0.16549622 0.76637524 0.30730295
000080 ed ac a2 be fd f2 90 3f d5 b5 bf 3e af 11 11 bf
       -0.31772557 1.1324154 0.37443414 -0.5666761
000090 df 35 16 3d b8 06 5d 3d 77 cd b0 3b f2 b1 b0 3d
       0.03667247 0.053961486 0.005395587 0.086276904
0000a0 ff b2 4e 3d bc ef 2e bd d3 29 0a 3d fd 71 91 bd
       0.050463673 -0.042709097 0.033731293 -0.0710182
0000b0 bd 4b 82 be 89 54 d1 bb d5 d4 cf 3b ab ec 81 3d
       -0.2544841 -0.006388251 0.00634251 0.06343969
0000c0 d8 fc 39 bf 79 39 92 bc bd 81 31 3f db 12 55 bf
       -0.72651434 -0.01784967 0.6933859 -0.83231896
0000d0 60 80 b1 bb 56 0c 48 3f 29 5f 52 bc 0a 73 48 3c
       -0.005416915 0.78143823 -0.012840071 0.012234459
0000e0 da 26 28 bd c9 36 b0 3c c1 bb dd bb 10 48 a5 bd
       -0.041052677 0.021510499 -0.006766767 -0.080703855
0000f0 df fe f8 bc 15 8c e3 bd bc 2a 72 be 04 80 22 bf
       -0.03039497 -0.11110703 -0.23649114 -0.63476586
000100 32 c1 11 3d bc 28 42 3e 00 99 85 bf 1e 43 86 3e
       0.035584636 0.18960851 -1.0437317 0.2622308
000110 19 d3 a3 3f 8b 2e 5e bf 80 06 9c 3e 91 43 98 3f
       1.2798797 -0.8678977 0.3047371 1.189562
000120 16 92 4c bc af e6 0d bd 13 c7 85 bb 3a 02 6d bd
       -0.0124860015 -0.034643825 -0.0040825694 -0.05786345
000130 26 8d 93 bc 0a be 9a 3d 09 ed 2e bd 75 55 ae 3d
       -0.01801164 0.07555778 -0.042706523 0.085123934
000140 5b d4 a4 3e f6 a5 5c bc 45 75 1f be 72 85 1f bd
       0.32193264 -0.013467303 -0.15572079 -0.038945623
000150 ef de ec 3c 57 66 04 be 03 54 a2 bd 44 13 47 3d
       0.028914897 -0.12929665 -0.0792618 0.048602358
000160 06 e4 18 be e0 b6 05 be a1 5d 1c bd ad 02 cc bc
       -0.14930734 -0.13058043 -0.03817523 -0.02490362
000170 15 ef b2 3c 7d e5 58 3e 55 91 8c be 2c 92 12 bf
       0.021842519 0.21181293 -0.2745463 -0.5725429
000180 76 08 01 3f 1f f3 32 bf 26 03 d1 bf 8e d0 9d a6
       0.50403535 -0.69902223 -1.6329086 -1.0950592e-15
000190 f1 c9 d0 a6 d4 65 ef a6 df 17 64 a6 f1 8b 3a a6
       -1.4487636e-15 -1.6611557e-15 -7.913574e-16 -6.472137e-16
0001a0 9d de 9b 26 d8 dc a0 a6 78 e7 c6 26 ee 8a de 26
       1.0815625e-15 -1.116209e-15 1.380175e-15 1.5442001e-15
0001b0 6d cb 9e 3b f7 a3 d5 ba cb dd 49 3d 3f 17 f3 bd
       0.0048460276 -0.0016299476 0.049283784 -0.11869668
0001c0 4a 36 a5 be 54 be 75 be f5 44 b1 3b 4e 57 93 be
       -0.32267982 -0.23998386 0.0054098316 -0.28777546
0001d0 5a 49 b1 be ff 1c e9 bc b6 14 0b bd 76 54 13 bc
       -0.34626275 -0.02845621 -0.0339553 -0.008992305
0001e0 e7 a9 94 bc e9 a0 05 be 66 90 43 be 65 ee 91 3d
       -0.018147422 -0.13049664 -0.19098052 0.07125548
0001f0 ab 60 58 bd b1 66 35 be d4 75 81 bc 33 ff 71 3d
       -0.052826565 -0.17714955 -0.015803255 0.059081268
000200 4f 39 9d bc b4 3b d4 3c fe 29 93 3b 2d 99 1c be
       -0.019192366 0.025907375 0.00449109 -0.15292807
000210 14 9a 1c 3b b2 46 8e bd a2 2f 7a be 92 32 05 27
       0.0023895549 -0.06947078 -0.24432233 1.8484872e-15
000220 95 c0 d7 24 47 e4 a7 a6 b8 45 57 a6 c1 dc f0 a6
       9.3567633e-17 -1.1649828e-15 -7.4687596e-16 -1.6713181e-15
000230 52 8d 8f 24 11 ef 1c a7 dd 05 c9 26 9b 60 c5 a5
       6.225577e-17 -2.1778947e-15 1.3948766e-15 -3.4239515e-16
000240 ff 20 a4 3d 96 cf aa 3d 1a 4d c2 bd 07 db 52 3f
       0.08014106 0.08340375 -0.09487362 0.8236546
000250 62 10 a6 bd 3f 9e 8d bf c5 aa 83 3f e1 85 39 be
       -0.081085935 -1.1063918 1.028649 -0.18117477
000260 ec 68 bb bf 24 47 8f be b2 25 dd 3d 7c c7 d3 3b
       -1.4641395 -0.27983963 0.107982054 0.0064629894
000270 6b f0 7f bf 1c bb b0 3e f8 6b ca 3f f8 8e 7a bf
       -0.99976224 0.34517753 1.58142 -0.97874403
000280 18 f1 41 3e 7a 35 bb 3f af 9f 5e bd 29 f4 4f bd
       0.18939626 1.4625695 -0.054351505 -0.05076996
000290 c1 a5 82 bd 18 0a a2 bd 3b 86 29 be fc 2e 56 be
       -0.06379271 -0.079120815 -0.16555111 -0.2091636
0002a0 3c 08 27 be 9b e8 a4 be df c8 db be 21 33 07 3d
       -0.16311735 -0.32208714 -0.4292669 0.033007745
0002b0 ae 65 19 3e 1f ae 64 ba 4d fd 1c 3e d9 ef 12 3e
       0.14980194 -0.0008723456 0.15331002 0.14349307
0002c0 22 bf bb bd 4f 67 04 3e 69 d7 0c bd e8 17 cc be
       -0.09167315 0.12930034 -0.03438512 -0.3986199
0002d0 92 88 6e 3d bb c1 55 3d 22 38 6e 3c d6 99 e5 3d
       0.058235712 0.05218671 0.01453975 0.112109825
0002e0 19 74 a5 3d a1 e3 bf 3c 91 d4 9d 3d 71 3a 16 3d
       0.080787845 0.023423972 0.077065594 0.036676828
0002f0 a4 d9 21 bc 66 cd 64 3d 2d c8 10 bc c2 83 96 bd
       -0.00987855 0.055859946 -0.008836788 -0.073493496
000300 a6 ac 4a 3f d7 62 34 bd 4a d0 3e bf 7f 1d 1b 3f
       0.7916969 -0.044039574 -0.74536574 0.6059188
000310 35 61 a1 bd 22 03 2b bf d5 cb c1 3c 27 f1 95 3d
       -0.07879869 -0.66801655 0.023656765 0.07321387
000320 d2 b0 4c 3c 0e 6b c1 3d 3d 1d 05 3d 37 37 c7 bd
       0.012493329 0.09444247 0.032498587 -0.09727328
000330 f1 3e 49 3d 02 20 e6 bd 35 3f c9 be a9 cb 0c bc
       0.04913229 -0.11236574 -0.39306036 -0.008593478
000340 7a 28 c9 3c e9 54 5e 3d 59 f9 e4 bd 16 5f 66 3d
       0.024555434 0.054280195 -0.11180372 0.056243025
000350 c5 13 49 3e 0d d6 7b bd 7e f4 01 3d 31 27 a0 3d
       0.19636448 -0.06148343 0.031727307 0.07819975

763 f4 [24]
000000 f4 f9 f9 3e 0e 3e f4 be af 13 8d bf 0e 1a 65 bf
       0.48823512 -0.47703594 -1.1021632 -0.8949288
000010 65 7a 1d 3d ab c1 c5 3c 45 7e 38 3e a2 fb c6 bc
       0.038446803 0.0241402 0.18016918 -0.02428991
000020 d7 35 0f be b0 ae c2 3e 2e 80 14 3f e1 f2 d6 31
       -0.13985382 0.380239 0.58008087 6.255832e-09
000030 51 c5 1e 3e 1f 39 ec 3e 5d 58 32 3e 1a 57 d3 31
       0.15504958 0.4613733 0.1741652 6.1508105e-09
000040 bf e3 70 3f 5b 53 27 bd 55 02 da 3e f7 53 4a bd
       0.9409751 -0.04085098 0.42579904 -0.04939648
000050 17 a7 41 be 42 6f 7c 3e 4f ab 2a 3e 99 8b f7 bd
       -0.18911396 0.24651816 0.16666912 -0.12087173

765 f4 [24, 24, 1, 1]
000000 bc 55 dc bb b7 76 a8 3d 64 c5 1d 3c 67 39 3c 3c
       -0.0067240875 0.08225768 0.009629581 0.011488295
000010 27 10 99 bc 51 3e 1b bc ae 67 c4 3c 70 55 90 3c
       -0.01868446 -0.009475307 0.02397522 0.017618865
000020 09 35 d0 bb 2e 86 a5 3c 48 a8 1d 3c f4 23 22 a9
       -0.0063539785 0.020205583 0.009622641 -3.600241e-14
000030 cf 1d 57 be 88 aa e4 bd 5d 6f d2 bb a1 96 0e a9
       -0.21007465 -0.11165339 -0.006421967 -3.1660984e-14
000040 d0 be 5e bb fe d9 c5 3d ee e2 0e bd c1 3a 91 bb
       -0.0033988245 0.09660719 -0.034884386 -0.004432053
000050 21 d7 93 3c 11 44 5c bd a5 e0 e0 bc bc 84 36 3d
       0.018046917 -0.05377585 -0.027450869 0.04456018
000060 5d 4f c3 3d bd a6 a4 3d 3b b2 b3 3d c2 7d 74 bc
       0.09536622 0.08039615 0.08774229 -0.014922561
000070 61 78 a9 bb 59 73 66 bd ad fa b4 bd e9 2b 15 3e
       -0.005171821 -0.056262348 -0.08836875 0.14567532
000080 0e cc 17 bd a6 89 64 bd 4e 27 93 3f 4d 53 56 2a
       -0.037059836 -0.055795334 1.149637 1.9035919e-13
000090 ba ff 32 be e7 39 95 bd ac 2b 0e 3d ec 66 ba 29
       -0.17480364 -0.072864346 0.034709617 8.2779134e-14
0000a0 92 17 36 be bc 27 8f 3d ef f8 a6 3d c3 4b 7d 3c
       -0.17782429 0.069900006 0.08152949 0.0154599575
0000b0 19 f0 04 3c a9 5d 51 bc a9 d4 35 bc 44 05 2f bd
       0.008113884 -0.012778678 -0.011098065 -0.04272963
0000c0 a7 e0 05 3e eb 4a 4b bd 0a 10 a3 3e 75 0b 85 3d
       0.1307398 -0.049631994 0.31848174 0.06496326
0000d0 15 b3 2e 3d 5d 8d a4 bc 54 39 5b 3d 93 60 4d 3c
       0.042651255 -0.020086939 0.05352147 0.012535232
0000e0 db cd 52 3c 31 25 fb 3d a3 06 6b be 32 7a 23 a9
       0.012866463 0.12262953 -0.2295175 -3.6299258e-14
0000f0 76 3a fa bc 85 c0 86 3c 0b 94 84 3d e1 ec 14 a8
       -0.030545454 0.016449222 0.064735495 -8.267015e-15
000100 3a cb 9e be 17 ed 02 3c 8c d5 c9 bd f5 ca 8e bb
       -0.31014425 0.007991097 -0.09855184 -0.0043576905
000110 54 75 4f bc d4 6d 53 3c da 9c ce 3c c9 90 8f bb
       -0.012662251 0.012904603 0.025221277 -0.0043812734
000120 bc 79 30 be a1 79 e8 be 0b d7 b1 bc 16 b2 90 3d
       -0.17233938 -0.45405295 -0.021708986 0.07065217
000130 0b c5 38 3e ee 0e 20 3d 52 8d d6 3e 08 4e 12 3e
       0.18043916 0.039076738 0.41904694 0.14287579
000140 da 36 9b 3d 4c 20 44 bc 3d 93 bc bd b2 61 a5 a9
       0.075788215 -0.011970591 -0.09207771 -7.3444194e-14
000150 4a 7b 50 3e aa e2 ee 3e 96 45 81 be a6 be 12 2a
       0.20359531 0.46657306 -0.25248402 1.303355e-13
000160 88 33 b8 3b 00 ad cb 3d d5 9e 58 bf be 68 c6 bd
       0.0056213774 0.099451065 -0.8461736 -0.09687947
000170 2c 74 06 be 15 17 55 be ea b2 89 3c 4e e4 9d 3d
       -0.13130254 -0.20809586 0.016808946 0.07709561
000180 77 1c 5e 3d 7e 3c 37 bd 47 f6 96 3d 9a 4c 5a 3f
       0.054226365 -0.044735424 0.073711924 0.85273135
000190 f2 4e 05 bd a2 f6 f0 3a 3a 84 bf bb ba 66 97 bb
       -0.03254599 0.0018384049 -0.00584462 -0.0046204003
0001a0 97 c0 bb bc df 1c 28 bd ab 38 ea 3d 05 92 13 29
       -0.022918982 -0.04104316 0.1143659 3.276721e-14
0001b0 62 ed bc bc b9 b6 3c 3c 16 7e 99 3c af b2 03 a9
       -0.023062412 0.011518174 0.01873688 -2.9242827e-14
0001c0 c7 b6 2f 3d cb 4c a5 bb 8e 89 5b bd 3f 53 c7 b9
       0.04289892 -0.005044555 -0.05359798 -0.0003801826
0001d0 57 76 4b bc 4f 17 1b bc 5e 7b 99 bc 25 ff 57 3c
       -0.012418351 -0.009466006 -0.018735584 0.01318339
0001e0 1d 47 8c 3e 6f 8f 6f 3e 7e 9e db 3d 82 0c c5 3c
       0.27398005 0.2339456 0.10723589 0.024053816
0001f0 36 8c c6 bd 7a 27 a8 3e 9c 83 bd bd 16 6f 32 3e
       -0.09694712 0.32842618 -0.09253618 0.17425188
000200 87 35 e8 3c 13 43 31 bd e0 22 1e 3e 0f 7d 13 aa
       0.028345836 -0.043276858 0.15442991 -1.3099611e-13
000210 fb bb 7a bd db d0 e3 bd 82 7e 56 3c 5f e1 94 a9
       -0.06121443 -0.111238204 0.013091685 -6.611616e-14
000220 e8 16 fa 3e fa 40 24 be 96 8f c0 3e 91 91 02 bd
       0.488456 -0.16040412 0.37609547 -0.031877104
000230 93 99 ec bc 11 95 0b 3f 9d 93 1d 3d ad 4c 21 3d
       -0.028881824 0.5452433 0.038470853 0.039379764
000240 e1 c6 12 ba 98 49 a6 3c 11 83 a1 b8 0c 10 dc 3b
       -0.0005599093 0.020298764 -7.701491e-05 0.00671578
000250 b7 51 48 bc 4b be 3d 3f 87 c1 4f 3d eb d3 74 3e
       -0.012226514 0.7411849 0.05072167 0.23908965
000260 fd 78 4b 3c 5f 4d 52 be e0 db 3f bb a5 79 20 a9
       0.012418983 -0.20537327 -0.0029275343 -3.5632647e-14
000270 8c a9 d7 38 52 6b 0c bd 9a 1b d0 bc 69 a7 39 29
       0.000102835795 -0.034282036 -0.025403786 4.1223457e-14
000280 97 b4 aa bb 58 01 4a 3d 20 2e 2c 3b 06 e2 57 bd
       -0.0052095163 0.049317688 0.002627261 -0.052705787
000290 9d fc 9d be c4 3a 3b bc 2d a5 d5 bc fe c9 12 bc
       -0.3085679 -0.011427585 -0.026079739 -0.0089592915
0002a0 20 a7 8f 3d 14 f5 2b 3e 2f 43 f2 bc c3 a1 e8 bb
       0.070142984 0.16792709 -0.029573051 -0.0070993616
0002b0 7e 86 64 be 53 0d 90 3c 74 80 be 3d a3 9f 12 3d
       -0.2231693 0.017584478 0.09301844 0.035796773
0002c0 24 ac c8 3d ec ff 89 be 73 25 22 3e a3 1e 88 29
       0.09798458 -0.26953065 0.15834598 6.044928e-14
0002d0 d6 94 04 be e2 a8 cd bc 48 9e 58 bd 6a 0e e9 29
       -0.12947401 -0.025104944 -0.052885324 1.0349779e-13
0002e0 06 3d 15 bd af f5 ab bd 79 d2 d5 bd b3 48 af 3d
       -0.03643515 -0.0839647 -0.10440535 0.08558788
0002f0 84 be b6 3e 50 8f 53 3c 7e 23 71 bd 03 7d f0 3d
       0.35692227 0.012912586 -0.05887174 0.11742594
000300 86 a1 56 bd e4 4a 1a 3c 40 f3 00 3f a5 28 69 bd
       -0.052400135 0.009417269 0.5037117 -0.056923527
000310 a4 56 65 bc 1f 54 9c bb c3 4a c2 bc e2 96 4a bb
       -0.0139977075 -0.00477077 -0.02371729 -0.0030912687
000320 14 63 3c ba 84 44 fb bc e0 44 45 3d 91 fa cd a8
       -0.00071863947 -0.03067232 0.048161387 -2.2868238e-14
000330 43 29 65 bd 31 22 f7 3c 61 f2 0e 3d 93 20 33 a9
       -0.055947553 0.03016767 0.03489912 -3.9774238e-14
000340 5f 80 a5 3d a7 56 17 3d 0e 4e 8e 3c ca 35 dc ba
       0.080811255 0.036947872 0.017371204 -0.0016800698
000350 95 97 ec bb b9 0a 71 3c a3 44 5f bc 90 13 65 3c
       -0.0072202184 0.014712029 -0.013627204 0.013981715
000360 0a 17 28 3e 1b a3 32 bd b0 97 86 bf f6 57 a1 bf
       0.16415039 -0.04361258 -1.0515041 -1.2604969
000370 10 63 72 3d cc e9 f5 3b ef 7a 2b 3d 54 cf b3 3d
       0.059176505 0.0075046774 0.041865285 0.08779779
000380 81 3b ed 3c f5 24 97 bb d4 b7 b7 3d 67 c7 1d 2a
       0.028959038 -0.00461256 0.08970609 1.4013583e-13
000390 99 f5 7a 3b 18 f9 3e 3c 68 a4 12 be 4f 40 71 a9
       0.003829336 0.011656068 -0.14320529 -5.356853e-14
0003a0 2e 8a 4c 3f 55 ba a7 bc b9 a0 5f be 3b 5d 5b 3c
       0.79898345 -0.020474592 -0.21838655 0.013388927
0003b0 71 68 71 3c f9 7c a5 bd b8 17 a4 3c b8 95 c5 bc
       0.014734373 -0.08080477 0.020030841 -0.024119243
0003c0 cf 28 87 bc f0 39 73 3e 83 ba de 3d 6e 35 c2 3d
       -0.016498951 0.2375257 0.10875418 0.09482847
0003d0 10 1d 99 3d 70 a7 bb 3d 54 33 27 3e 80 ef d3 bd
       0.07476246 0.091627955 0.16328174 -0.103484154
0003e0 53 c2 96 bd 9d 3f ca bd 7d 2b 1e 3d fa d5 70 a9
       -0.07361283 -0.098754145 0.038615692 -5.34763e-14
0003f0 f3 5e 2a be 97 43 b5 bb 09 ba 0a 3e 9e 94 b9 a8
       -0.16637783 -0.005531739 0.1354753 -2.0603578e-14

766 f4 [24]
000000 79 bd 16 3e 2e 6f dd bd 39 a8 c2 3e 33 75 7e 3e
       0.14720716 -0.108122215 0.3801897 0.24849395
000010 7a bf 42 3e 7d c8 eb 3d 62 ae 35 3c f6 a3 03 3e
       0.19018355 0.115128495 0.011088939 0.12855515
000020 f5 41 53 3d 17 87 f5 bd 34 27 28 3c 97 0e 94 3d
       0.051576573 -0.11988657 0.010263253 0.07229345
000030 85 78 a2 3e 1a 08 09 3e ea d5 17 bd bc 0f ce 3d
       0.31732574 0.13381997 -0.03706924 0.10061595
000040 43 f6 e9 3e 76 4d f6 3d 27 7d 0a 3e c5 d1 07 3e
       0.45695695 0.12026493 0.13524304 0.13263614
000050 9f 54 fe 3e c4 50 c5 bd 9d 16 99 3d a6 3f 0a 3e
       0.49673936 -0.096345454 0.07475016 0.13500842

768 f4 [24, 24, 1, 1]
000000 01 8d 81 3e bf 17 00 3d 75 6e 7a 3e 7c a7 8b 3e
       0.2530289 0.031272646 0.24456199 0.27276218
000010 bd d7 3f 3c 19 f8 08 3e d5 cb b7 38 3c cf 12 3e
       0.011709151 0.13375892 8.764087e-05 0.14336866
000020 32 7b 29 3c a3 6d 34 3c 3d e9 02 3e 8c 6d 75 29
       0.010344313 0.011012468 0.12784286 5.4495945e-14
000030 fc e5 3b 3e 04 63 98 3c 0b 03 7e 3c f4 af ea a7
       0.18349451 0.018601902 0.015503655 -6.5138816e-15
000040 8d 6f d2 3e 2a 14 8b 3e a7 29 92 ba d7 8f b9 3c
       0.41100731 0.2716382 -0.0011151329 0.022651596
000050 18 a5 b7 3b d4 53 95 3d 79 25 c8 3b 6b fa 0c 3c
       0.0056043975 0.072913796 0.0061079827 0.008604626
000060 fb 0f b4 3d 92 d4 a7 3d 45 59 f2 3b e3 73 12 3d
       0.087921105 0.081948414 0.0073958957 0.03575505
000070 3b 37 5a 3e 83 a0 0e 3f 65 1d 3b 3e c9 67 47 3b
       0.21310131 0.5571367 0.18272932 0.003042685
000080 f1 e6 81 be 4e 30 fc bd 0d b1 b3 3d 3c d3 a0 a9
       -0.25371507 -0.12313901 0.08774004 -7.142071e-14
000090 88 3c 57 3d d2 21 c5 3c 26 73 7d be fc e0 60 27
       0.05254796 0.024063978 -0.24750957 3.120821e-15
0000a0 c8 16 9b 3d c0 72 4a 3d 12 d1 16 3d 1e d0 d0 be
       0.075727046 0.04942584 0.03682048 -0.4078378
0000b0 a4 7d 5e be 93 62 75 3e 89 df 5a 3e 1b ed 4d be
       -0.21727616 0.23963384 0.21374334 -0.2010998
0000c0 09 66 5f 3d 55 ab b1 bd 83 fc c5 bb e4 f3 6f bc
       0.054540668 -0.08675257 -0.0060420646 -0.01464555
0000d0 6d 0e 1c 3e 88 1e 4f be 0a d6 12 bf 52 95 77 bd
       0.15239878 -0.2022649 -0.5735785 -0.060445137
0000e0 0f c0 f1 3c 1d 59 3a bd a4 fc 0b 3d 69 8d 73 29
       0.029510526 -0.04549514 0.034176484 5.4079493e-14
0000f0 31 37 00 3d 76 d0 83 bd d0 db 28 bb a3 a0 31 28
       0.031302635 -0.06436245 -0.0025765784 9.860306e-15
000100 ba ce 96 3d 45 e2 d2 bd 96 70 87 bd 5f 3c 4e 3d
       0.07363649 -0.10297064 -0.06613271 0.050350543
000110 c7 d3 8f 3d 38 ce dc bd 87 e0 b0 bc 1d 02 90 3b
       0.07022815 -0.107815206 -0.021591438 0.004394783
000120 4a 43 e8 3d a3 ec c1 be 9e 62 09 3e 3c 42 d8 3d
       0.11340959 -0.37875852 0.13416526 0.10559508
000130 62 5d b4 3c f2 43 b8 3d eb 63 88 3d e9 7e 7f 3d
       0.022017185 0.089973345 0.06659683 0.06237689
000140 5a 95 da bb 17 35 d9 be a8 70 79 bd d5 82 08 29
       -0.006670636 -0.42423317 -0.060898453 3.0311545e-14
000150 c1 da a4 3d 46 de 4c 3e e8 06 83 3c 14 55 26 a9
       0.080495365 0.20006666 0.015994504 -3.6933198e-14
000160 e2 58 78 3d ee 48 a1 3d 61 a1 f0 3b 9f 46 81 bb
       0.06063164 0.07875238 0.0073434566 -0.0039451863
000170 bf 7f cf be c2 0a 1e 3e 49 31 fe 3d d0 e2 ef be
       -0.4052715 0.15433791 0.12411744 -0.46852732
000180 15 38 70 be 3c 7e e9 3c 25 04 8a bd 0c 94 25 be
       -0.23458894 0.028502576 -0.06739072 -0.16169757
000190 ad 4b a0 be e2 ea 02 be 31 85 9b be 5e 72 26 bc
       -0.31307736 -0.12784913 -0.30375054 -0.010159103
0001a0 5f b0 37 3d f9 a2 c8 bc e3 99 44 be 46 00 6c 29
       0.044845935 -0.024491774 -0.19199328 5.2402764e-14
0001b0 e9 ae 31 be dd 88 da bc 12 e5 a5 3d bd bf b3 29
       -0.17351879 -0.02667659 0.08100332 7.982458e-14
0001c0 dc b5 aa be 5a a8 17 be c3 fb 0a be e1 74 c0 3d
       -0.33341873 -0.14810315 -0.13572602 0.09397293
0001d0 93 84 a3 3c 1a ff e4 bd a2 a7 5d be 6a 89 db 3c
       0.019960677 -0.11181469 -0.21645978 0.026798923
0001e0 3b 19 a5 be 95 06 15 bd 35 d7 b8 be 9c 0a a3 be
       -0.32245812 -0.03638323 -0.3610169 -0.31844032
0001f0 df 6e 95 bc 55 ac 04 be e2 16 58 bc 03 f4 82 be
       -0.018241344 -0.12956364 -0.013189049 -0.2557679
000200 70 dc 4b bc ff 71 7f bc 8a c7 69 be 24 50 82 28
       -0.012442693 -0.015591144 -0.22830024 1.4467655e-14
000210 e6 1c 75 be 39 ae f2 bc 30 a6 25 bc 23 03 48 28
       -0.23936805 -0.029624091 -0.010110423 1.110291e-14
000220 17 e2 ea be 7c 61 c0 be 87 f0 80 bc ec c2 7d bc
       -0.45875618 -0.37574375 -0.015739692 -0.0154883675
000230 d1 cc 1a bc 75 c7 de bd fe ce ae bc b6 d5 51 bc
       -0.009448246 -0.10877887 -0.021338936 -0.0128073
000240 12 17 8c 3d 5c f1 59 3e b2 70 f1 3d bc 78 55 3d
       0.06840338 0.21283478 0.11789073 0.052117094
000250 84 ef 85 be ad 34 8d 3e e8 74 8e be 37 4a 47 3c
       -0.26159298 0.2757925 -0.27823567 0.01216369
000260 e3 be a9 be 8d cc 44 3e ee f8 cd 3d 79 d2 14 29
       -0.33153448 0.19218655 0.10057245 3.3045157e-14
000270 b0 9d c7 3d 2d 1a 08 bf ab 8e 9c be 2f ec b1 29
       0.097468734 -0.5316494 -0.30577597 7.90135e-14
000280 47 74 d0 3d 90 2f 13 3d 36 6f 6c 3d 93 c4 1a be
       0.10178428 0.03593403 0.057723247 -0.1511405
000290 91 d9 af 3e 6b a1 48 3e 73 a2 bc be 15 06 a6 3e
       0.34345677 0.19592826 -0.3684269 0.32426515
0002a0 68 ec 76 3d 6e 08 82 3e 2a 03 aa 3d 8c 71 52 3d
       0.06028405 0.25397056 0.08301385 0.051377818
0002b0 dd 56 82 bc 2f 05 53 bc 26 f4 3f bd 8d d3 43 3e
       -0.01591056 -0.012879654 -0.046863697 0.19123669
0002c0 2f e8 94 be 83 dd 6e 3e 12 9d 2a bd f8 1b 82 a9
       -0.29083392 0.23326688 -0.0416537 -5.7780115e-14
0002d0 27 a9 54 3d d2 01 c3 be 50 55 8e be 96 43 62 29
       0.05191913 -0.38087326 -0.27799463 5.0240702e-14
0002e0 f4 18 7d 3c fc b5 1a 3e 0b a5 54 3d 27 4c 97 be
       0.015447844 0.15108484 0.05191521 -0.29550287
0002f0 71 ca 50 3e 79 75 6d 3e 44 64 8d bd 33 f7 57 3e
       0.20389725 0.23189344 -0.0690389 0.21090393
000300 79 c2 ee 3c 3c 42 ba bc 5c a7 da bc a0 73 03 bd
       0.029145466 -0.022736661 -0.026691131 -0.03209269
000310 96 3f 23 bf b1 a0 26 be 3d 03 51 3e d6 a9 c7 bd
       -0.637689 -0.16272236 0.20411392 -0.097491905
000320 52 4e ed bc 28 86 93 bc 54 2c 53 3c fb bb 41 a9
       -0.02896801 -0.018008307 0.012888987 -4.3017656e-14
000330 18 5f b4 bd 84 27 0f be 9a 33 44 3d ec 16 ba a5
       -0.088072 -0.13979918 0.047900774 -3.228139e-16
000340 f3 66 a5 3b d9 19 31 3e 2b d3 75 3d e0 78 8f 3d
       0.005047673 0.17295016 0.06001584 0.07005477
000350 b5 c7 51 bc 48 15 b0 bd d8 a1 5f bd 02 85 5c 3d
       -0.0128039615 -0.08597809 -0.054597706 0.053837784
000360 b7 e6 a3 3d 3b 49 b7 3d cd 09 71 3d 92 a8 d0 3d
       0.0800299 0.089495145 0.058847237 0.10188402
000370 50 c2 93 be e0 4f 95 3d 54 82 80 be 36 9a 59 3d
       -0.28859186 0.072906256 -0.25099432 0.053125583
000380 0e eb 8f 3d c5 b0 c4 bc bc 26 0f 3c 0d 5e 5a a9
       0.07027255 -0.024010072 0.008737262 -4.84873e-14
000390 86 21 1f bd 99 c9 2d 3c d8 71 89 3d 28 bb cb a8
       -0.03885033 0.010607147 0.06711167 -2.2618693e-14
0003a0 f2 ec ba 3d 29 b0 01 3e a4 58 2c be e1 a1 3b 3e
       0.09127225 0.12664856 -0.16830689 0.1832347
0003b0 f0 f3 1c 3d 43 0a 03 3e f9 26 ab be fc 47 bb 3c
       0.038318574 0.12796883 -0.3342817 0.022861473
0003c0 ec 7f db 3d 9f a3 95 3d 3d d5 85 bc 78 6d 20 bc
       0.107177585 0.07306599 -0.016337031 -0.009791724
0003d0 ba c0 d3 3c c8 78 18 3c 99 84 5a bd 9c b5 2c 3e
       0.025848735 0.00930614 -0.05334911 0.16866153
0003e0 87 91 3f 3e d1 46 a4 3d f6 84 f8 3d 00 30 92 28
       0.18707858 0.0802132 0.12134735 1.6230073e-14
0003f0 b4 99 bb bc bf 45 02 3c f0 9c 55 be c8 0e bb a9
       -0.02290044 0.007951199 -0.20860648 -8.3070324e-14

769 f4 [24]
000000 f0 a9 91 bf 0d 94 2f bf 5c b0 f3 3e 80 84 e0 3b
       -1.1379986 -0.6858528 0.4759549 0.0068517327
000010 5e 24 a2 3f b9 d3 01 40 81 5a 80 be b8 f3 c5 3d
       1.2667348 2.0285475 -0.2506905 0.09665626
000020 f6 6b 01 3f 6e 38 0b be 58 17 c6 be 5a 09 da 3e
       0.5055536 -0.13595745 -0.38689685 0.4258526
000030 7c 31 bd 3e d6 bc d3 be 4e 81 fc bf c6 b3 15 40
       0.36951816 -0.41355008 -1.9726961 2.3390975
000040 ad b6 2d 3e a0 59 23 bd 3a a9 b3 bd 8f b0 87 3e
       0.16964217 -0.039880395 -0.08772512 0.2650189
000050 f6 b2 87 be b5 eb 51 40 5c a3 0b 3f 5a 56 99 3d
       -0.26503724 3.2800114 0.5454614 0.074871734

771 f4 [24, 1, 3, 3]
000000 3f ff d4 3c f1 1c be 3f 26 78 02 3f 35 6c 61 bf
       0.026000617 1.4852582 0.5096458 -0.88055736
000010 ca e3 87 bf 0a 24 8c c0 85 47 ee bd 98 54 1c 40
       -1.0616391 -4.3793993 -0.11634735 2.4426632
000020 08 91 df 3f 47 87 cf bd ce 97 92 be 53 3c 48 be
       1.7466135 -0.10133224 -0.28631443 -0.19554262
000030 77 15 25 be d0 c0 32 bf 22 cc 17 bf 85 09 29 bc
       -0.1612147 -0.6982546 -0.59295857 -0.010317211
000040 6a 5f c0 be 63 2e a6 be 90 ea 6b 3d d4 ae 9a 3e
       -0.37572795 -0.32457265 0.057596743 0.30211508
000050 0c 6a 9f 3e 25 cc dc 3e d1 bf 84 3f 9c 25 7a 3f
       0.31135595 0.431245 1.0371038 0.9771364
000060 66 22 f8 3e 02 5d 86 3f 6e 8a 75 3f 1c ca 12 3e
       0.48463744 1.0497134 0.9591435 0.14334911
000070 24 5c e4 3e d8 d4 00 3f 73 f5 ba 3e b1 52 35 3f
       0.44601548 0.50324774 0.36515388 0.708293
000080 67 c0 17 3f 0e db b4 3e bd bc 23 3f b1 ec fa 3e
       0.5927796 0.35323375 0.63959867 0.49008706
000090 d2 0d bf be 82 2f e2 3f 7b 55 7e bf 83 8b 7f bf
       -0.37315232 1.7670748 -0.9934918 -0.99822253
0000a0 2e 3c 19 40 7d b7 0a c0 3c 89 38 bf ad db ef 3f
       2.394298 -2.1674492 -0.72084403 1.8738915
0000b0 53 84 a8 bf cf 75 16 3f 2c 58 42 bf 82 a6 8e 3f
       -1.3165382 0.5877351 -0.7591579 1.1144564
0000c0 90 ca 4e 3f 4f 69 63 c0 16 1e 54 be 4b 85 88 3f
       0.80777836 -3.5533025 -0.20714602 1.0665678
0000d0 28 92 9e bf 0e e9 ab 3f 15 c8 4b bc de eb 7e be
       -1.2388353 1.3430498 -0.01243784 -0.24894664
0000e0 2c 7c 96 be cd c5 41 be ee 7a 11 bf 38 42 37 bf
       -0.2939161 -0.18923111 -0.568282 -0.71585417
0000f0 88 0f 22 be 5c 6b c1 be f8 d7 5c bf d4 8a 2f be
       -0.15826237 -0.3777722 -0.8626704 -0.17142802
000100 a2 8d ae be 0f db 8f bd c8 71 83 be d5 7e 18 bf
       -0.34092432 -0.07024204 -0.25672746 -0.5956853
000110 54 49 a2 be f8 09 bb bc d5 72 a7 be 4b e6 bf be
       -0.3169657 -0.022831902 -0.32704797 -0.37480387
000120 0a 86 42 be 06 b4 a2 be 60 4b 93 be 06 4c 14 bf
       -0.18996444 -0.31777972 -0.28768444 -0.579285
000130 d2 a3 7c bf 37 7f 2c bf d0 02 f1 be f0 cc 59 bf
       -0.9868747 -0.67381614 -0.47072458 -0.85078335
000140 f7 ff fd be 71 8a 8d 3d 62 0e 90 3e 0e 38 2e 3e
       -0.49609348 0.06911171 0.28135973 0.1701357
000150 7b eb 48 3e 9d 77 2e 3f d2 83 16 3f ad 60 48 bd
       0.19621079 0.68151265 0.5879489 -0.048920322
000160 02 cc c8 3e a6 bf a9 3e e4 a6 1d be c5 4a ef be
       0.39218146 0.3315403 -0.15395695 -0.46736732
000170 8c c9 bd be 2b 53 65 be 99 ef 2e bf 3e de 12 bf
       -0.3706783 -0.22395007 -0.68334347 -0.57370365
000180 10 71 08 be 05 87 a0 be 20 9b a2 be 24 1c 77 3d
       -0.1332438 -0.31353012 -0.31758976 0.06032957
000190 90 4c de 3e 27 b4 2b 3f 72 09 8e 3e e4 ce ae 3f
       0.43417788 0.67071766 0.2774158 1.3656888
0001a0 ee 5d b4 3f d7 7b c2 3e be 6a 88 3f d0 38 70 3f
       1.4091165 0.37985107 1.0657575 0.9383669
0001b0 28 07 e5 3e e9 8d bf 3f 79 ca f6 be 86 1f a1 3f
       0.44732022 1.4965183 -0.4820135 1.2587745
0001c0 10 93 a8 3f a9 bb 80 bf ae 62 95 be cb 5f 9e be
       1.316988 -1.0057269 -0.2917685 -0.3093246
0001d0 dd 32 22 c0 17 c7 eb bd 49 fd b0 be 23 fc e8 be
       -2.5343544 -0.11512583 -0.3456824 -0.45504865
0001e0 a4 70 86 be 19 74 85 bf 4a b7 92 bf 90 56 99 be
       -0.26257813 -1.0426055 -1.1462185 -0.29948854
0001f0 e8 f5 69 bf 76 42 8a bf ef 87 53 bd ab be 4a be
       -0.9139085 -1.0801532 -0.05164331 -0.19799297
000200 96 83 54 be 67 b8 f5 bd 3d 95 1f bf c9 e5 1b bf
       -0.20753321 -0.119980626 -0.62337095 -0.608975
000210 10 c9 82 bd e4 0f 20 bf fb 93 3e bf 57 2b ef 3e
       -0.06386006 -0.6252425 -0.7444455 0.46712753
000220 c0 c3 6b 3f 7b 12 e6 3f c1 98 15 bf 55 05 73 c0
       0.92095566 1.797439 -0.5843621 -3.7972004
000230 63 6e 82 c0 76 ac 12 3f cd e8 cc 3f c2 3e 19 40
       -4.075975 0.57294405 1.6008545 2.3944554
000240 38 8c 36 3e c6 a4 94 3e db b6 8d 3d 92 ed 20 3e
       0.17826927 0.29031962 0.069196425 0.15715626
000250 8b b2 f4 3e 67 25 c0 3e 25 eb 81 3d d7 ee b5 3e
       0.47792467 0.37528536 0.063436784 0.35533783
000260 31 fb e6 3e b2 bc 4a be c5 0c ee be c1 9c d9 be
       0.4511352 -0.19798544 -0.46494117 -0.42502406
000270 c9 b5 b8 be db a9 41 bf 05 e8 2d bf ac 8a b2 be
       -0.3607619 -0.75649804 -0.6793216 -0.34871423
000280 96 52 22 bf b9 07 2a bf 7a 80 19 3f 79 07 1f bd
       -0.63407266 -0.66418034 0.59961665 -0.038825486
000290 52 11 ae bf d8 4c 5e bf 7b 89 71 bf 43 12 a4 c0
       -1.3599036 -0.86836004 -0.94350404 -5.127229
0002a0 85 d5 79 be 9d 5b d5 c0 92 f0 4f c1 04 d1 3b be
       -0.24397857 -6.6674333 -12.996233 -0.18341452
0002b0 9a af 18 bf 64 b1 0e bf 13 79 6e be 14 43 7f bf
       -0.59642947 -0.55739427 -0.23288374 -0.9971173
0002c0 b6 28 87 bf 2c e4 86 bd 51 34 42 bf 20 fa 4a bf
       -1.0559299 -0.06586489 -0.7586108 -0.7928791
0002d0 0b e7 e8 bd f7 e7 69 be f8 20 a7 be 74 18 52 be
       -0.11372193 -0.22842394 -0.3264234 -0.2051714
0002e0 f0 73 20 bf 10 77 2b bf 21 82 da bd e0 18 04 bf
       -0.62676907 -0.6697855 -0.10669351 -0.51600456
0002f0 b7 a9 07 bf 07 6f 00 be c9 1b 2e be db 85 55 be
       -0.5299334 -0.12542354 -0.17002787 -0.20851843
000300 68 82 58 be e0 c2 02 bf c2 59 1a bf db f7 6c be
       -0.21143496 -0.51078606 -0.6029321 -0.23141424
000310 85 ad 08 bf 53 fb 47 bf 60 5d 20 bf 71 cc 26 c0
       -0.5338977 -0.78117865 -0.6264248 -2.606228
000320 ad 4b d9 bf ec 20 86 be 89 79 de be b0 67 54 be
       -1.697622 -0.26196992 -0.434521 -0.20742679
000330 cb 9d 4d 3f 69 3a 43 40 2c 04 0a 40 85 86 fa bd
       0.803189 3.05044 2.1565046 -0.12232689
000340 7c 9b 5a be 2d 70 db bd 17 14 35 be 6d 8d 9d 3f
       -0.21348375 -0.10714755 -0.17683445 1.2308785
000350 85 9b da 3f 57 94 92 3e 25 bf 0e 40 e1 24 37 40
       1.7078711 0.286288 2.2304165 2.861626

772 f4 [24]
000000 69 8f 20 3d 26 5d f3 3e 74 bd b3 be e7 6e bd be
       0.039199267 0.47532004 -0.3510548 -0.36998674
000010 7e 84 af 3d dd 22 cf 3e 96 7c ee 3e 2c 8a 3b 3f
       0.08570193 0.40456286 0.46579427 0.7325771
000020 73 20 bf 3e 5e 6d 23 bf 31 46 2f 3e a8 53 75 be
       0.37329444 -0.63838756 0.1711662 -0.23957694
000030 d6 da 46 3d ff 76 b0 3e d2 9b 97 3e 38 12 6c 3d
       0.048548542 0.34465787 0.2961107 0.057634562
000040 15 52 34 bf 0b 69 bd 3e dc 9e 4f 40 39 67 a6 3e
       -0.7043775 0.36994204 3.244071 0.32500628
000050 08 11 d6 3e 46 cb 12 3f 1e b6 d3 bd eb e7 92 be
       0.4180987 0.5734142 -0.103374705 -0.28692564

774 f4 [24, 24, 1, 1]
000000 ac a7 40 3c d0 38 31 bd cc c7 06 3d 2b 16 55 3c
       0.011758726 -0.04326707 0.032905385 0.013005774
000010 b2 81 92 bb b6 93 8f bc 97 aa 14 bd 26 7e e0 bc
       -0.0044710273 -0.017526489 -0.0362955 -0.027403902
000020 37 2a 93 bc 72 fc 09 3d 90 a7 86 3d 13 57 a7 3c
       -0.017964466 0.033688016 0.06574929 0.020427262
000030 57 01 10 bb f3 85 38 bd 7d 93 f2 bc f5 ae 81 b9
       -0.0021973455 -0.04504962 -0.029611344 -0.0002473515
000040 ae 6b 0d 3d 63 80 f8 bc 39 a6 0f 3e 67 dc 98 bd
       0.03452652 -0.030334657 0.14028253 -0.074639134
000050 48 bb 0b bd b6 a8 71 bc bb 96 8f 3c 01 3a 46 3d
       -0.034114152 -0.0147496965 0.017527929 0.04839516
000060 24 66 76 bd 19 c3 46 bc 89 94 78 bc b7 14 cb bb
       -0.060156003 -0.012131476 -0.015172132 -0.0061975378
000070 69 e2 12 3d 20 f0 b6 3d 4f 87 7a 3d e9 e5 15 3d
       0.035860453 0.08932519 0.061164197 0.036596213
000080 92 fc e3 3d 8c 78 63 bc 5e a4 65 3e 9c 24 da bd
       0.11132158 -0.013883721 0.22425982 -0.10651514
000090 ec 2b 64 3c e0 a7 a1 3c 53 fe 2e bc 65 10 2c 3b
       0.013926487 0.01973337 -0.010680753 0.002625489
0000a0 1c 56 8b bd 09 ca 08 3c 37 aa 6e bd 9e 69 a2 3d
       -0.068035334 0.00834895 -0.0582678 0.07930301
0000b0 7f e4 9f 3d 49 ed 94 3d 2b f3 bf be bc 83 72 3d
       0.07807254 0.07271821 -0.3749021 0.059207663
0000c0 54 ed 38 be 47 a1 99 bd dc 97 4a 3e 58 93 75 3d
       -0.18059283 -0.07501464 0.19784492 0.05995497
0000d0 2c ef 8f 3e 46 76 d5 be 43 25 de 3d 20 d2 f7 bc
       0.2811216 -0.41691798 0.10846951 -0.030251563
0000e0 51 25 16 be 2a ac 16 be 07 f2 60 3d 9d c1 97 bd
       -0.14662673 -0.14714113 0.054918315 -0.07409976
0000f0 52 76 4a 3c 9e 6e b8 3d 89 d9 8a 3b db 34 79 bd
       0.012357311 0.090054736 0.004237358 -0.060841423
000100 40 66 7f 3c e5 d3 78 3c 9f 62 b1 bd 76 ed 29 bc
       0.015588343 0.015187238 -0.086613886 -0.0103715565
000110 1c b8 a6 3d 36 4c 13 3d cf c7 6f 3d 4c 8c 87 3d
       0.08140585 0.035961352 0.05854016 0.066185564
000120 c6 2c 29 bc ac d1 a0 bd 1e c6 1d 3e 10 34 91 bd
       -0.010325616 -0.07852492 0.15407607 -0.07090008
000130 50 15 8a bd 18 ec 9a bd 24 ba 1d be dd e8 21 bd
       -0.06742346 -0.075645626 -0.15403038 -0.039528716
000140 0b 77 69 be e1 a9 0a 3e e2 e6 f2 3c 1d eb 01 3e
       -0.22799318 0.13541366 0.02965111 0.12687345
000150 01 da cd bc 27 8b 27 be 63 4b 43 3d cb d1 11 3c
       -0.025128366 -0.16361676 0.047679316 0.008900116
000160 7c 36 ee bc df 12 8d bc 8c 3f b4 3c 69 10 26 be
       -0.029078715 -0.017220913 0.022002958 -0.16217197
000170 b4 d1 84 be 68 ae 43 3d a2 94 1f 3b a0 41 be 3d
       -0.2594124 0.04777375 0.0024350067 0.09289861
000180 7e ad 86 3b e5 36 cf 3d 95 e9 b2 3c 5e bf 86 3e
       0.0041100373 0.10117892 0.021839896 0.26317877
000190 77 59 81 bc d4 5c 9b 3c 77 a5 92 3e 2b 89 2c 3e
       -0.01578973 0.018965162 0.28641865 0.168492
0001a0 cc d6 06 bd c8 6b ee 3d ec 4f ba bc 1f a0 07 bb
       -0.03291969 0.116416514 -0.022743188 -0.0020694805
0001b0 dd 56 6c be 4c fe b7 bd 16 e0 f4 bc 43 8c b7 3b
       -0.2308001 -0.0898405 -0.029892009 0.0056014373
0001c0 df 11 63 3e 16 25 99 3e 34 c7 19 bd 6e 01 64 3c
       0.22174786 0.29911107 -0.03754349 0.0139163565
0001d0 37 e4 54 be 3e 05 36 3d 59 25 30 bc 92 ca 51 bd
       -0.20790182 0.044438593 -0.010751092 -0.051218577
0001e0 de c5 a3 3b 5f e3 96 3e 8f 93 80 be 52 82 0f 3c
       0.004997953 0.29470345 -0.25112578 0.008759098
0001f0 b8 c4 88 3b cc ec d6 bc a2 d9 47 bd a8 66 59 3e
       0.0041738413 -0.02623596 -0.048791535 0.21230567
000200 3c 51 25 bd 63 43 45 3e 8f 6c 17 3e 98 b9 04 be
       -0.040360674 0.19263987 0.14787506 -0.12961423
000210 52 52 75 3d 1f af 04 be 65 eb a9 bd 94 db 24 bc
       0.05989296 -0.12957428 -0.08296851 -0.010062117
000220 e7 1b 7b bd 4f 12 f4 3d a7 29 28 bc 38 48 04 bd
       -0.061305907 0.119175546 -0.010263837 -0.032295436
000230 9f 7c 92 bd 0f 67 80 bd 2f cf ce 3d 83 85 85 bd
       -0.07152676 -0.06269657 0.10098111 -0.06519606
000240 67 bf c3 3e 67 ac 8e 3d b1 24 5b 3d 87 1b 90 bd
       0.38231966 0.06966477 0.05350179 -0.070365004
000250 1a 10 23 bd b7 19 cc bd 4a 07 d3 3c 99 5d 25 3d
       -0.039810278 -0.09965842 0.025760312 0.040372465
000260 2d 23 82 bd 16 6f 54 3d 68 4d 05 bc 64 ff b7 3d
       -0.063543655 0.051863752 -0.008136131 0.08984259
000270 9e 6f 3e bc aa 02 e0 bd a0 d9 92 bb 8e 10 9d be
       -0.011623291 -0.10938008 -0.0044815093 -0.30676693
000280 66 cf fa bc 54 9f 97 3d 1c 45 8b 3c 62 11 58 bd
       -0.030616473 0.07403436 0.017000727 -0.052750953
000290 ea 95 0f bc 3f 8e dd 3c 49 c6 f3 3c 59 45 29 bc
       -0.00876377 0.027045367 0.029757636 -0.010331475
0002a0 01 45 95 be 9c bd 4a bd 88 77 80 3d 98 11 90 bd
       -0.29154208 -0.04949723 0.06272799 -0.07034606
0002b0 5c 76 60 3d 35 1b 4e 3e ea ad 96 3c 89 f5 01 3d
       0.054800376 0.20127566 0.018393476 0.0317283
0002c0 91 d9 8c bd 50 f9 b9 bb 73 e0 d8 bd bf b9 34 3e
       -0.06877435 -0.0056754723 -0.10589685 0.17648982
0002d0 bf 72 16 3c b0 84 7a 3d 05 d6 9a bd 74 f1 c1 3e
       0.009182631 0.061161697 -0.07560352 0.37879527
0002e0 4e fd 0b bd 3f 20 7e 3c 20 0c b3 3b f2 80 23 be
       -0.034177117 0.015510618 0.005464092 -0.15967157
0002f0 f2 d1 c5 3c 05 e4 04 3e 5d ab a8 bc 70 e2 a1 bd
       0.024147961 0.12977608 -0.020589525 -0.07904518
000300 28 8c 05 3b 1e b9 c7 38 31 8b 62 3c 86 1b 96 3e
       0.002037773 9.52354e-05 0.013827131 0.29317874
000310 41 52 28 bc ab b7 22 bc c0 2b 8c 3e f6 56 b7 3e
       -0.010273517 -0.009931485 0.2737713 0.35808533
000320 61 e7 3d bc e8 19 fd 3c 46 46 f2 3c 56 e2 e2 bc
       -0.01159081 0.030896142 0.029574525 -0.027695816
000330 ee 6b 32 3c 7c 31 97 bd 1d 08 55 bc 6e 8f 10 bb
       0.01088999 -0.07382485 -0.013002423 -0.0022058147
000340 b1 e4 91 3e c4 aa 90 3e 1e 74 17 3c 4d d0 73 bc
       0.2849479 0.28255284 0.009243993 -0.014881206
000350 7d 9f 80 be b3 80 fd bb b3 8e a7 3c d6 88 c3 bb
       -0.2512168 -0.0077362894 0.020453786 -0.00596724
000360 82 e8 8e bc 47 c1 52 3d 17 da 6f bd f8 18 b6 3d
       -0.017444853 0.051453855 -0.058557596 0.08891481
000370 8b 99 e5 bc 55 c4 4a 3c 9f c1 2e 3d 15 30 f2 bd
       -0.028027317 0.012375911 0.04266512 -0.11825577
000380 91 0a d5 3c 8e 1f e0 3d 97 3e 7a bd 40 a8 76 bd
       0.026006015 0.109435186 -0.061094847 -0.06021905
000390 8b d9 fd 3c fc 56 24 bd d4 1f 61 be 53 bf 88 3b
       0.030987522 -0.040122017 -0.21984798 0.0041731982
0003a0 4f 15 85 3d 25 7a b0 bd d4 de 20 3d 98 c1 84 3d
       0.06498205 -0.08617047 0.039275005 0.064822376
0003b0 21 46 36 3d 66 04 4d 3e bf 62 99 bc 92 a0 6d bd
       0.044500474 0.20021209 -0.018723844 -0.05801446
0003c0 42 8b 69 bc 63 71 b5 bd f0 64 28 3d 09 45 95 bc
       -0.014254393 -0.088595174 0.041111887 -0.018221395
0003d0 b6 95 8e bc 24 de 27 3c 81 b5 9a bd 44 4d 82 3d
       -0.017405372 0.010245834 -0.075541504 0.063623935
0003e0 b1 9f 08 bd cd 87 ec 3a f6 5d 7b 3d 1d b8 86 3c
       -0.03335542 0.0018045843 0.061368905 0.016445214
0003f0 08 07 d0 bb c5 73 86 bd 65 8b 98 bc 02 f2 07 3d
       -0.0063484944 -0.0656505 -0.018621156 0.03318978

775 f4 [24]
000000 eb 51 d7 3e e8 8a 48 3e ce 00 87 3e e8 6d f9 ba
       0.42054686 0.19584239 0.263678 -0.0019029947
000010 87 39 47 3f 1c c9 90 3e 04 3f 3d 3e 80 bd c0 3d
       0.77822155 0.28278434 0.1848107 0.09411144
000020 cf 5c a9 b9 ae ca a4 3e 1b 24 5c 3f 90 ef 95 bd
       -0.0003230334 0.32185882 0.8599259 -0.073210835
000030 e2 29 41 3f e2 a4 1e 3d ae c4 39 3f 2c 4a 51 3e
       0.75454533 0.038731463 0.72565734 0.2043845
000040 2c 6a 5c 3e dd 51 79 be f8 30 c9 3d 41 cf e1 3e
       0.21524876 -0.24347635 0.09823793 0.44103435
000050 7a e3 0c 3f 37 15 f8 3d b8 1b d8 3d f3 e0 43 3e
       0.550346 0.121134214 0.10552162 0.1912878
